assets/model.tflite (tflite, 588468 bytes, 8 tensors)

sequential/dense_1/BiasAdd/ReadVariableOp/resource f4 [36]
0.015188766 0.074042305 -0.017774647 0.0052099894 0.046923567 -0.032341138 0.07057415 0.04227045
0.122896954 0.04790401 -0.0596249 -0.07240328 -0.09122419 -0.0069424743 -0.030910438 -0.1098519
0.008321639 0.040201608 -0.07645315 0.06517708 0.05423696 -0.031397793 0.095757715 0.072209544
-0.0181994 -0.0985346 -0.008495468 -0.033871084 -0.020719875 0.0069585694 0.037686218 0.042118784
-0.011234924 -0.010648704 -0.04493726 -0.051461734
00000000: 4dda 783c 7ea3 973d 239c 91bc 8fb8 aa3b
00000010: ed32 403d 2478 04bd 2e89 903d c823 2d3d
00000020: 66b1 fb3d ff36 443d 3d39 74bd 2c48 94bd
00000030: c0d3 babd b27d e3bb e337 fdbc 08fa e0bd
00000040: 7c57 083c 71aa 243d 7893 9cbd 907b 853d
00000050: 9327 5e3d f99a 00bd 9f1c c43d 99e2 933d
00000060: e816 95bc 82cc c9bd 9330 0bbc 68bc 0abd
00000070: babc a9bc b604 e43b dd5c 1a3d bf84 2c3d
00000080: b012 38bc e777 2ebc 2210 38bd 8ac9 52bd

sequential/dense/BiasAdd/ReadVariableOp/resource f4 [128]
0.013200675 -0.0067325477 -0.0074252994 0.009677683 -0.04604407 0.0017207507 -0.00078013755 0.036630318
-0.026645107 -0.00065606943 -0.024972172 -0.011321149 0.026891287 -0.006008182 -0.013965183 -0.008403009
-0.005824152 -0.051631283 -0.0069453064 0.0116222445 -0.024266906 -0.004670386 -0.011538029 -0.009178074
-0.006849629 0.0048266556 -0.030290699 -0.015099216 -0.012379408 0.039868962 -0.017097145 -0.025265409
-0.00942741 -0.035078555 -0.031763256 -0.01833768 -0.0042442074 -0.0035273533 -0.008904466 -0.02563076
-0.009403045 -0.031882584 0.02554229 -0.016701233 -0.02301445 0.041045837 -0.028963085 -0.017777711
0.022418879 0.017438702 -0.014573169 0.030594744 0.0012023443 0.016343378 -0.016158117 -0.00906335
0.004432744 -0.034037612 0.03314879 -0.02456292 0.044239733 0.00058780704 0.009195164 0.024233518
0.023651509 -0.018062849 0.009448331 -0.017278558 -0.04783867 -0.028432019 -0.010339278 0.024181785
0.005602009 0.0057640476 -0.030255625 -0.026784813 -0.008118472 -0.0076891882 0.01963689 -0.0013290057
0.0040626144 0.008335829 -0.024621638 -0.019582057 0.004801157 0.011735463 0.022387803 0.036440562
0.00041025234 -0.036613863 -0.0043234685 -0.0050498038 -0.029953735 -0.011270472 0.015487959 0.0036594577
-0.044373285 -0.009851723 0.020198401 0.037692007 0.01731335 -0.028027587 0.042461544 -0.003029469
0.0027933728 -0.015807327 0.006482568 -0.011369706 -0.024177266 -0.015878497 -0.021668836 -0.017738847
-0.020873133 0.04645268 -0.002745552 0.045194615 -0.0025840374 -0.025684778 0.03000349 0.048215237
0.00084101467 0.016189605 -0.040071335 -0.014432137 0.04355591 -0.0057957177 0.010766114 -0.011916289
00000000: a547 583c b49c dcbb ed4f f3bb 258f 1e3c
00000010: b598 3cbd d08a e13a 2582 4cba ac09 163d
00000020: d746 dabc 13fc 2bba 7192 ccbc 577c 39bc
00000030: 1e4b dc3c 49e0 c4bb 39ce 64bc c6ac 09bc
00000040: 87d8 bebb 537b 53bd 7495 e3bb 3a6b 3e3c
00000050: 64cb c6bc 0a0a 99bb 000a 3dbc a25f 16bc
00000060: da72 e0bb ec28 9e3b 3324 f8bc b462 77bc
00000070: 00d3 4abc a34d 233d 500f 8cbc 67f9 cebc
00000080: 6c75 1abc 88ae 0fbd 301a 02bd e738 96bc
00000090: fe12 8bbb 2b2b 67bb 0ae4 11bc 99f7 d1bc
000000a0: 3b0f 1abc 5097 02bd 113e d13c 06d1 88bc
000000b0: cd88 bcbc ae1f 283d fe43 edbc 90a2 91bc
000000c0: cca7 b73c 9cdb 8e3c 4dc4 6ebc d4a1 fa3c
000000d0: fb97 9d3a 8ce2 853c 075e 84bc 727e 14bc
000000e0: 8d40 913b 066b 0bbd 07c7 073d 2d38 c9bc
000000f0: b934 353d 1017 1a3a 50a7 163c 5f85 c63c
00000100: cfc0 c13c 8af8 93bc 2ccd 1a3c c38b 8dbc
00000110: 7bf2 43bd 44ea e8bc 1366 29bc e118 c63c
00000120: 0f91 b73b 56e0 bc3b a5da f7bc d36b dbbc
00000130: 5703 05bc 96f5 fbbb 8bdd a03c 0832 aeba
00000140: ae1f 853b 0093 083c 51b3 c9bc 8d6a a0bc
00000150: 0653 9d3b 1946 403c a066 b73c b342 153d
00000160: 2317 d739 6bf8 15bd e2ab 8dbb d378 a5bb
00000170: 8961 f5bc c9a7 38bc 35c1 7d3c 83d3 6f3b
00000180: c3c0 35bd 1f69 21bc 1e77 a53c ef62 1a3d
00000190: bad4 8d3c 1c9a e5bc 28ec 2d3d 0e8a 46bb
000001a0: 0511 373b 5e7e 81bc b96b d43b 0148 3abc
000001b0: 670f c6bc 9f13 82bc d882 b1bc 0f51 91bc
000001c0: 22fe aabc 2a45 3e3d b8ee 33bb fd1d 393d
000001d0: f458 29bb e268 d2bc e1c9 f53c 577d 453d
000001e0: 8a77 5c3a 10a0 843c d721 24bd c574 6cbc
000001f0: af67 323d 01ea bdbb 5b64 303c 8a3c 43bc

sequential/conv2d_1/BiasAdd/ReadVariableOp/resource f4 [64]
-0.025278328 -0.006168153 0.035140023 -0.037941694 0.020211734 -0.028749598 0.009247936 -0.0062886444
0.0029567594 -0.021510562 0.04842709 0.013436745 0.026855288 0.04623897 -0.03950756 0.051525336
-0.007840609 0.0036407122 -0.017914452 -0.020595958 -0.0041428786 -0.026962321 -0.022864396 0.017058434
-0.0071860054 0.07307754 0.035118435 -0.02954564 -0.04179029 -0.024558906 -0.023230746 0.029505484
-0.042464513 -0.0006283794 0.03602299 -0.0066179885 -0.008705961 -0.024734128 0.00032506417 0.011878665
0.009231064 0.03786029 -4.6534173e-05 0.031256005 -0.031792447 0.004943167 -0.029265542 -0.015357061
-0.0036839466 0.059918698 0.054068416 0.008126328 0.02531498 -0.027705694 0.011590553 0.03416181
-0.0262628 0.04179313 0.002622838 -0.023787023 0.013053787 -0.02817021 0.046189122 -0.010605322
00000000: 7f14 cfbc 381e cabb fcee 0f3d c068 1bbd
00000010: 1493 a53c 4784 ebbc a884 173c f910 cebb
00000020: 31c6 413b eb36 b0bc 7c5b 463d cb25 5c3c
00000030: 9fff db3c 1365 3d3d aed2 21bd 3b0c 533d
00000040: e675 00bc 0499 6e3b 54c1 92bc dbb8 a8bc
00000050: fcc0 87bb 16e0 dcbc 1d4e bbbc 21be 8b3c
00000060: 9578 ebbb ada9 953d 59d8 0f3d b309 f2bc
00000070: 4c2c 2bbd c22f c9bc 684e bebc 7cb5 f13c
00000080: 45ef 2dbd d4b9 24ba d88c 133d b6db d8bb
00000090: 72a3 0ebc 3a9f cabc 606d aa39 bb9e 423c
000000a0: e33d 173c 6413 1b3d b02d 43b8 4c06 003d
000000b0: cc38 02bd 4afa a13b 4abe efbc 2f9c 7bbc
000000c0: 5e6e 71bb 4f6d 753d d876 5d3d 4a24 053c
000000d0: 5c61 cf3c 0df7 e2bc 4ee6 3d3c 41ed 0b3d
000000e0: 1525 d7bc 462f 2b3d ebe3 2b3b 01dd c2bc
000000f0: 8ddf 553c 36c5 e6bc ce30 3d3d f2c1 2dbc

sequential/conv2d/BiasAdd/ReadVariableOp/resource f4 [32]
0.1984323 0.049291838 0.15361325 0.11957002 0.024148814 -0.101589195 -0.047434807 -0.084791385
-0.06699178 0.08651353 -0.11703594 0.12230004 0.12868066 0.13389573 0.13901226 0.18517159
0.12292058 0.18198657 0.1562029 0.066532336 0.20742138 -0.029200198 -0.074962385 0.15405889
0.0762478 0.051203817 0.041717168 0.16083981 0.0 -0.06537796 0.15154804 0.12604655
00000000: d631 4b3e 3de6 493d cb4c 1d3e 20e1 f43d
00000010: bcd3 c53c ff0d d0bd 004b 42bd 1ba7 adbd
00000020: fd32 89bd 012e b13d 8ab0 efbd 7278 fa3d
00000030: ddc4 033e f61b 093e 3b59 0e3e 9f9d 3d3e
00000040: c9bd fb3d b05a 3a3e a7f3 1f3e 1b42 883d
00000050: 4566 543e 4135 efbc e185 99bd 9dc1 1d3e
00000060: ce27 9c3d 18bb 513d 9fdf 2a3d 31b3 243e
00000070: 0000 0000 e1e4 85bd 692f 1b3e 5912 013e

sequential/dense/MatMul f4 [128, 960]
-0.024608588 0.06481653 -0.09609486 0.027458478 0.076923855 -0.054108527 0.07292886 0.01849553
-0.064205095 -0.028014753 0.059233118 0.17523867 0.042368166 0.058365587 0.0034012673 0.026926704
-0.030855414 0.16496633 0.026280783 -0.14140522 0.06716238 -0.021808233 0.056218132 0.010099932
0.11794693 -0.033139553 0.023234908 0.2250043 -0.01148979 0.116308175 -0.0030462674 -0.112898156
-0.002454314 -0.043088775 -0.014207053 -0.069981284 0.020291634 -0.0229366 0.016585771 -0.00011481767
0.05314981 0.008398594 0.08477455 -0.06580344 0.0404025 0.03676872 0.034021825 0.014397416
-0.0021967196 0.022056105 0.0024863377 -0.06092896 0.07137027 0.095566265 -0.019168237 0.033258677
-0.04555942 0.07532917 0.06520449 -0.0336626 -0.054805525 0.08178879 0.040317673 -0.057644155
0.06654467 -0.04982775 -0.06398323 -0.05201846 -0.03180578 -0.057647433 -0.021705762 -0.01816807
-0.07779697 -0.04244069 0.0038614902 -0.04443462 0.08274577 -0.028416578 0.084218495 -0.011853128
-0.069591425 0.0678196 -0.10932482 -0.039388984 0.0956154 -0.043408066 -0.072809495 -0.12114564
-0.014889014 -0.026701128 0.004600607 -0.12098879 0.011969819 0.008859032 0.045322016 0.05007695
-0.06449979 -0.18665299 0.021011986 -0.12960356 -0.056864098 0.09965915 -0.0022896326 0.040777855
0.02942426 0.057388254 0.041356746 0.17694905 -0.14079164 -0.03897276 0.048026957 -0.0010579153
-0.011910259 0.046101388 0.0813904 -0.03972335 0.06088816 0.08406354 -0.048829034 -0.007542282
-0.042500358 0.034337822 -0.012109381 0.05095008 -0.0658774 -0.15466684 0.036198065 0.04578185
0.044042293 -0.019141817 0.036107376 0.07625182 0.08145435 -0.0065770056 -0.059718058 -0.062291775
0.03345317 0.056367844 0.03714044 -0.111877754 -0.09990087 0.07366524 -0.04776177 0.096083045
0.025776865 0.0001872708 0.067568645 -0.081881225 0.017125314 0.030603472 0.007649897 -0.013290217
0.0511346 -0.109270945 0.100051165 -0.18065852 0.003426873 -0.08146682 -0.03301255 -0.1358036
0.08557339 -0.16694123 0.04424304 0.00017825424 0.040009465 0.04949549 -0.0061662598 0.041177753
0.02128038 0.015670314 -0.093069024 -0.023740001 -0.103920914 0.06598189 0.08105618 0.09176219
-0.08498335 0.04497449 0.021656962 0.02997131 0.009754681 -0.012484968 -0.05938586 0.05426296
0.004586274 0.08813759 0.08398032 0.04833965 0.03288114 -0.023578325 0.053462382 0.07513312
-0.037068598 0.05472624 0.0068260804 -0.08964264 0.05654196 -0.06882396 0.064501576 -0.028913375
-0.052574847 0.06743514 -0.03491023 -0.057888143 -0.02003101 0.091686 -0.010776391 0.020808196
0.06320663 0.018295936 0.090517506 -0.049423356 0.00535238 -0.059878502 -0.007510762 0.151748
-0.0036528134 0.0242753 -0.009953157 -0.07147312 -0.09274 -0.11851801 -0.06882533 -0.07638258
-0.11305409 -0.14896196 0.010887125 0.018996583 -0.014123859 0.0013660273 0.06534913 0.052033734
0.04159099 0.050533358 0.04047069 -0.062607735 -0.078757085 0.121013194 0.033703297 -0.018761901
-0.018793961 0.10514355 0.10155476 0.04432851 -0.041043337 0.0020549751 0.025412928 -0.074780405
-0.0888378 -0.043054853 -0.011528997 -0.073504426 0.06926559 -0.042427808 0.18033388 0.02807996
00000000: f397 c9bc 87be 843d 62cd c4bd 9af0 e03c
00000010: 418a 9d3d e7a0 5dbd ba5b 953d f083 973c
00000020: f67d 83bd 327f e5bc 6d9e 723d c471 333e
00000030: 3e8a 2d3d c110 6f3d cce7 5e3b 6495 dc3c
00000040: 7ec4 fcbc efec 283e cc4a d73c 88cc 10be
00000050: 6e8c 893d 2ea7 b2bc fc44 663d 2f7a 253c
00000060: 298e f13d 57bd 07bd 2257 be3c 8767 663e
00000070: ac3f 3cbc fb32 ee3d e3a3 47bb 2637 e7bd
00000080: 8ed8 20bb db7d 30bd b3c4 68bc 5952 8fbd
00000090: a43a a63c 89e5 bbbc e2de 873c 44ca f0b8
000000a0: 9db3 593d 429a 093c 479e ad3d f4c3 86bd
000000b0: 187d 253d cc9a 163d 785a 0b3d 24e3 6b3c
000000c0: d7f6 0fbb 01af b43c d3f1 223b a590 79bd
000000d0: 932a 923d 3fb8 c33d b506 9dbc 403a 083d
000000e0: 849c 3abd 2e46 9a3d ef89 853d cbe1 09bd
000000f0: c27b 60bd e280 a73d 2524 253d 471c 6cbd
00000100: 9248 883d 2f18 4cbd a409 83bd 4f11 55bd
00000110: c746 02bd b71f 6cbd 48d0 b1bc 34d5 94bc
00000120: 0554 9fbd 4ad6 2dbd 0e11 7d3b 1301 36bd
00000130: 9d76 a93d e2c9 e8bc bf7a ac3d 9f33 42bc
00000140: f385 8ebd 01e5 8a3d b1e5 dfbd 5856 21bd
00000150: 02d2 c33d a8cc 31bd 251d 95bd 351b f8bd
00000160: 0df1 73bc 53bc dabc b0c0 963b f9c8 f7bd
00000170: 0f1d 443c 7925 113c 94a3 393d 7d1d 4d3d
00000180: 7718 84bd f621 3fbe 5421 ac3c ccb6 04be
00000190: 54ea 68bd 191a cc3d a90d 16bb ae06 273d
000001a0: 250b f13c f20f 6b3d b165 293d 2232 353e
000001b0: af2b 10be e7a1 1fbd eab7 443d bfa9 8aba
000001c0: 3f23 43bc cfd4 3c3d 03b0 a63d f4b4 22bd
000001d0: dd65 793d 8129 ac3d f400 48bd 3f25 f7bb
000001e0: db14 2ebd d1a5 0c3d 6d66 46bc 08b1 503d
000001f0: bbea 86bd fc60 1ebe 6c44 143d c085 3b3d
00000200: b165 343d 4dcf 9cbc 54e5 133d ea29 9c3d
00000210: 8ad1 a63d ec83 d7bb ec9a 74bd a925 7fbd
00000220: 3106 093d f8e1 663d 9320 183d 2a20 e5bd
00000230: d498 ccbd cddd 963d d9a1 43bd 30c7 c43d
00000240: 012a d33c 1f5e 4439 6e61 8a3d 58b1 a7bd
00000250: 634a 8c3c 22b4 fa3c fdab fa3b 36bf 59bc
00000260: 8472 513d 72c9 dfbd a0e7 cc3d 8cfe 38be
00000270: 6395 603b 13d8 a6bd 2b38 07bd 1910 0bbe
00000280: 1a41 af3d a4f2 2abe 3138 353d c2e9 3a39
00000290: f7e0 233d c8bb 4a3d 560e cabb 01aa 283d
000002a0: 3154 ae3c 085f 803c f99a bebd 647a c2bc
000002b0: 7dd4 d4bd 8321 873d c800 a63d d1ed bb3d
000002c0: c00b aebd 2c37 383d f169 b13c 6586 f53c
000002d0: 19d2 1f3c c08d 4cbc 963e 73bd d642 5e3d
000002e0: 7448 963b 7b81 b43d e0fd ab3d ccff 453d
000002f0: 60ae 063d 5527 c1bc 5ffb 5a3d 65df 993d
00000300: 3ed5 17bd 9f28 603d 50ad df3b 8f96 b7bd
00000310: 8b98 673d 94f3 8cbd 6719 843d bedb ecbc
00000320: b958 57bd 6f1b 8a3d 08fe 0ebd 1e1c 6dbd
00000330: 1318 a4bc dfc5 bb3d 768f 30bc f375 aa3c
00000340: 7a72 813d 5ce1 953c 3e61 b93d 2570 4abd
00000350: 0563 af3b 2943 75bd d71c f6bb d463 1b3e
00000360: 0a64 6fbb fedc c63c 9112 23bc 8060 92bd
00000370: 78ee bdbd 92b9 f2bd 4bf4 8cbd 786e 9cbd
00000380: e788 e7bd 7c89 18be e95f 323c b99e 9b3c
00000390: c267 67bc 450c b33a c4d5 853d 5321 553d
000003a0: 505b 2a3d 11fc 4e3d 98c4 253d 7c38 80bd
000003b0: 654b a1bd c4d5 f73d 780c 0a3d 8fb2 99bc
000003c0: cbf5 99bc 8055 d73d f1fb cf3d d091 353d
000003d0: 0f1d 28bd c3ac 063b c62e d03c 7826 99bd
000003e0: 98f0 b5bd 495a 30bd 1ee4 3cbc 7d89 96bd
000003f0: 1edb 8d3d c8c8 2dbd 72a9 383e f207 e63c

sequential/dense_1/MatMul f4 [36, 128]
0.15892276 0.0860175 0.04513631 0.06401254 -0.02315464 0.06413514 -0.19626312 -0.06423087
0.1270001 -0.061939407 -0.20397684 -0.0577867 -0.008615901 0.1634006 0.12029348 0.06884282
-0.03530047 -0.36203313 -0.1593473 -0.46169442 0.15318047 0.07543671 0.012672504 -0.12938346
-0.16229004 0.15886456 0.089735195 0.18664187 0.16880275 -0.3155438 0.19127403 0.0069465204
0.050151743 -0.3549889 0.18583575 0.06796217 0.12402653 -0.046119515 0.016506594 -0.3639714
-0.094554596 0.045639932 0.053204443 -0.00538077 0.13439748 0.18518415 -0.23288554 -0.07947275
0.12742214 -0.21149309 -0.34957832 -0.35700595 -0.3400604 -0.07592402 -0.04733769 -0.026586987
0.0107670855 -0.14523399 0.03953112 0.045559254 -0.19440521 -0.07304741 -0.18412006 0.115562305
-0.037586868 0.12083026 -0.020969562 0.11374648 -0.14864963 0.090445034 -0.004858782 -0.19087164
-0.051627077 -0.15948331 0.05487397 -0.05042103 0.061148573 0.11195945 0.10295599 -0.08941337
-0.33062845 -0.01624876 0.17061238 -0.070324846 0.13286461 -0.1507428 0.1093461 0.023989104
0.08625932 0.12268726 -0.05380886 0.23956585 0.05205575 0.073755264 0.00082790625 0.1386103
0.08665319 -0.13393989 -0.3200758 0.14119616 -0.006332566 0.16351369 -0.13149343 -0.11255167
0.094314 -0.065946154 0.15765794 -0.004595023 -0.13385138 0.10505357 -0.058413018 -0.26386222
0.18105596 0.08461189 -0.21691626 0.13921474 -0.2132275 -0.19736904 0.06533927 0.12397687
0.23469166 0.025816672 -0.051347554 0.090586916 0.11211809 -0.040709388 0.014428268 -0.11471207
0.15349656 -0.081318565 0.10957838 -0.38906863 -0.24030785 -0.063248515 -0.28540474 0.08448322
0.0998115 -0.15095973 -0.16167833 -0.11082071 0.18615578 0.053385496 -0.17116292 -0.027754998
0.16827686 -0.11560125 -0.012320754 -0.3035074 0.08363618 0.103005655 0.09113357 -0.17345291
0.23619018 0.026712192 0.12989356 -0.0024419755 0.13414693 0.1444608 -0.10107505 -0.07954549
0.17451842 -0.49194977 0.2136842 -0.19762492 -0.070887074 -0.13732712 0.049919683 0.10900074
-0.08831392 -0.1418687 0.24837531 0.07656595 -0.4458875 0.2099367 -0.23050839 0.034035664
0.1575097 -0.2392184 -0.1255346 0.17223188 0.08830394 -0.09010246 0.1418913 0.08791655
0.08476693 -0.12804337 -0.262042 -0.021522703 0.13999683 -0.2177581 0.1837309 0.02754403
0.22194609 0.03976044 -0.33554706 0.19221956 -0.01683421 -0.15207478 0.02722527 -0.31361452
-0.1881325 0.16738771 0.036243707 -0.17177644 -0.109799504 -0.1695344 0.03573855 0.107454576
-0.17195041 -0.06695301 -0.04045886 -0.11348605 -0.06502977 -0.037293725 -0.299335 -0.13192922
0.16100839 -0.07504843 -0.11201799 -0.25757083 -0.002712544 -0.17527995 -0.31247136 -0.34610435
0.1138109 0.020224283 -0.0712454 0.20195387 -0.1643693 0.20752393 -0.129118 0.09783183
0.1644598 -0.28326893 -0.37634122 0.14751054 0.065828875 -0.1064035 -0.0722201 0.20852067
0.0058774306 0.14197007 -0.012960189 -0.15208282 0.1784416 0.22040981 -0.06664729 0.12641077
0.11758226 -0.10880684 -0.06386178 0.036606476 -0.033512086 -0.08356802 0.2004397 -0.18384157
00000000: a6bc 223e f129 b03d dae0 383d 0219 833d
00000010: cdae bdbc 4959 833d 33f9 48be 798b 83bd
00000020: 500c 023e 2db4 7dbd 4edf 50be bfb1 6cbd
00000030: b529 0dbc 7d52 273e 6e5c f63d 77fd 8c3d
00000040: 3a97 10bd 685c b9be f02b 23be 3663 ecbe
00000050: 57db 1c3e 907e 9a3d 56a0 4f3c 197d 04be
00000060: 5c2f 26be 64ad 223e 16c7 b73d 0c1f 3f3e
00000070: a1da 2c3e f58e a1be 57dd 433e a39f e33b
00000080: ea6b 4d3d 1bc1 b5be ba4b 3e3e c02f 8b3d
00000090: 9f01 fe3d d1e7 3cbd d638 873c 765a babe
000000a0: d7a5 c1bd f0f0 3a3d e7ec 593d 2c51 b0bb
000000b0: 7e9f 093e eaa0 3d3e 8c79 6ebe 9cc2 a2bd
000000c0: f37a 023e a591 58be eefb b2be 7cc9 b6be
000000d0: 661c aebe 0d7e 9bbd 2ae5 41bd f4cc d9bc
000000e0: 6e68 303c 38b8 14be 62eb 213d 579c 3a3d
000000f0: 2912 47be e199 95bd f889 3cbe eeab ec3d
00000100: b0f4 19bd db75 f73d 5cc8 abbc eaf3 e83d
00000110: 9c37 18be 3f3b b93d 6b36 9fbb db73 43be
00000120: ea76 53bd 984f 23be 87c3 603d 4886 4ebd
00000130: ed76 7a3d ff4a e53d 97da d23d 5b1e b7bd
00000140: 2248 a9be 1f1c 85bc 03b5 2e3e 7906 90bd
00000150: a90d 083e 525c 1abe d9f0 df3d cc84 c43c
00000160: baa8 b03d 7543 fb3d ae66 5cbd c050 753e
00000170: 6938 553d 000d 973d d907 593a dcef 0d3e
00000180: 3a77 b13d 8a27 09be fae0 a3be ba95 103e
00000190: 6a81 cfbb 2270 273e 37a6 06be 7d81 e6bd
000001a0: b327 c13d c70e 87bd 1571 213e d991 96bb
000001b0: 5610 09be 5326 d73d 7d42 6fbd f318 87be
000001c0: bc66 393e 0049 ad3d 4c1f 5ebe 4f8e 0e3e
000001d0: 4f58 5abe 1c1b 4abe 98d0 853d 96e7 fd3d
000001e0: 0353 703e 7c7d d33c d051 52bd a285 b93d
000001f0: 2b9e e53d e3be 26bd 8b64 6c3c 29ee eabd
00000200: 342e 1d3e 598a a6bd a16a e03d 0134 c7be
00000210: 4313 76be 7088 81bd 9220 92be 8a05 ad3d
00000220: f969 cc3d 3095 1abe 018f 25be f8f5 e2bd
00000230: 9f9f 3e3e c0aa 5a3d 5545 2fbe 735e e3bc
00000240: c550 2c3e 59c0 ecbd fddc 49bc 5265 9bbe
00000250: 7249 ab3d a1f4 d23d 3da4 ba3d a49d 31be
00000260: d7db 713e 87d3 da3c d102 053e 8d09 20bb
00000270: d05d 093e 88ed 133e 7000 cfbd bfe8 a2bd
00000280: f5b4 323e d7e0 fbbe 08d0 5a3e 305e 4abe
00000290: 3e2d 91bd 7b9f 0cbe 9578 4c3d c83b df3d
000002a0: eedd b4bd 0746 11be 1956 7e3e 9cce 9c3d
000002b0: 5e4b e4be a5f9 563e 640a 6cbe fb68 0b3d
000002c0: 394a 213e abf5 74be 248c 00be 8e5d 303e
000002d0: b2d8 b43d a387 b8bd f44b 113e 980d b43d
000002e0: 499a ad3d cd1d 03be 5e2a 86be 6150 b0bc
000002f0: 545b 0f3e fbfb 5ebe f423 3c3e 05a4 e13c
00000300: d645 633e d8db 223d d3cc abbe 34d5 443e
00000310: e6e7 89bc 7eb9 1bbe 8807 df3c 1592 a0be
00000320: cea5 40be af67 2b3e 4874 143d 2ae6 2fbe
00000330: 90de e0bd 6d9a 2dbe 9662 123d 2511 dc3d
00000340: c513 30be a91e 89bd 31b8 25bd 606b e8bd
00000350: 542e 85bd 4ec1 18bd 7042 99be 7418 07be
00000360: 62df 243e feb2 99bd b069 e5bd 53e0 83be
00000370: f0c4 31bb 967c 33be 3ffc 9fbe 9734 b1be
00000380: b015 e93d 65ad a53c 1ce9 91bd ffcc 4e3e
00000390: 6d50 28be 2781 543e 8237 04be 0e5c c83d
000003a0: 2668 283e a008 91be ccaf c0be 010d 173e
000003b0: 4ad1 863d 14ea d9bd 22e8 93bd 7186 553e
000003c0: 7697 c03b 9a60 113e f956 54bc 99bb 1bbe
000003d0: 65b9 363e 1cb3 613e 607e 88bd d371 013e
000003e0: f8ce f03d 1fd6 debd f7c9 82bd acf0 153d
000003f0: f843 09bd b625 abbd 1140 4d3e f740 3cbe

sequential/conv2d/Conv2D f4 [32, 3, 3, 1]
0.3001996 -0.10274846 0.03868811 -0.253005 -0.2984139 0.17168058 -0.13530676 0.046341304
0.07518248 0.38873705 0.2799611 0.011358966 0.2592406 0.1619015 0.058389913 -0.2833602
-0.33099353 0.08336796 -0.27613524 0.3356601 -0.018589173 -0.05596924 -0.06802604 -0.062933244
0.014456644 -0.13385051 0.2123756 -0.24136406 -0.031994574 0.20445882 -0.103231065 0.28647432
0.44508046 -0.1892774 -0.10972359 0.11490857 0.2958047 0.19677041 0.05054431 0.19369006
0.27260777 0.28968245 -0.35858995 -0.10610473 -0.11789135 0.3096941 0.24815227 -0.14712226
0.3262148 0.29590786 0.19039863 -0.11714848 0.18518627 0.21210378 -0.1408867 -0.13935421
-0.071365096 0.20250192 0.24730489 -0.018947149 0.27358818 0.22850987 0.2937068 0.049142994
-0.12996337 -0.12370309 0.1687542 0.16538046 0.109563395 0.2104491 0.2683588 0.35314488
0.058256593 0.08161374 0.24009109 -0.022163346 -0.049787514 0.32214472 -0.114714116 0.0905405
0.054751962 0.04460375 -0.05253593 -0.09693924 0.4248532 0.2119032 -0.22300725 0.36159825
0.22458923 -0.25693431 0.3581489 0.13527314 -0.12165402 0.33161986 0.2968477 -0.04769291
0.12095952 0.13562927 0.015348593 -0.14579795 -0.23602235 0.33078474 0.07895119 -0.0056179124
0.14142686 0.5233137 0.18837123 -0.37949544 -0.22841495 -0.10506053 -0.15812507 -0.11464278
-0.0763827 0.17805915 0.13379396 0.31250778 0.2921081 -0.1999176 -0.14922908 0.17340516
-0.08586686 -0.22591954 -0.05277751 0.2633335 0.14267366 0.34248102 -0.009311632 0.0036437185
-0.03304766 -0.16187292 -0.1593546 -0.1775781 0.12562369 0.24644661 0.17563985 -0.016096903
0.17203577 0.020352723 0.19068103 0.26172316 -0.08682981 -0.15395263 -0.18229368 -0.22069784
-0.07919363 -0.115599506 -0.098556526 0.109955 -0.16364534 -0.11573305 0.31587857 0.18816952
0.12582374 0.26619366 -0.19927153 -0.12822668 -0.17753185 -0.30850568 0.19526611 -0.113708295
0.0838186 0.24567133 0.060635604 0.20316608 0.19824128 0.011142396 0.15140434 -0.050762083
-0.19889818 -0.17339046 -0.19349647 -0.09244813 0.33603442 0.3501508 -0.16122611 0.19868557
0.2959353 -0.25980473 -0.01175651 -0.012041457 -0.059229806 -0.03205792 0.13139607 -0.19119667
-0.08328278 -0.07216989 0.18826878 0.13048483 -0.15598698 -0.109368466 -0.22581689 0.28873044
0.17387888 0.03305841 0.41563228 0.19602467 -0.036320627 0.0038886033 0.09519097 0.2139299
0.03528531 0.2786839 0.24960814 0.2616034 -0.05886935 -0.17725268 -0.06433093 0.13814704
0.053289853 0.053573884 -0.20256394 -0.21041104 -0.082708634 -0.14681461 0.28440902 0.21629412
-0.3948104 -0.09662429 -0.04375478 -0.11792635 0.1897434 0.22838072 0.23653096 0.34372687
0.29034197 0.07571816 0.23369847 0.23062396 0.037106443 0.35029766 0.18601555 -0.24884196
-0.14098127 -0.17056489 -0.1385469 -0.22706252 -0.21954535 0.31122935 0.06143559 0.15481937
0.37288266 0.18330851 0.15044361 0.21245661 -0.057766918 -0.17636658 0.22762704 0.0067963577
-0.2625423 0.35358173 -0.01970924 -0.2897844 -0.08670321 -0.07431616 0.010488272 -0.06850153
00000000: c3b3 993e c96d d2bd 6c77 1e3d df89 81be
00000010: b5c9 98be 09cd 2f3e db8d 0abe 61d0 3d3d
00000020: 46f9 993d 8b08 c73e 1057 8f3e f51a 3a3c
00000030: 2fbb 843e 82c9 253e 432a 6f3d 9714 91be
00000040: fc77 a9be d2bc aa3d 9961 8dbe a4db ab3e
00000050: 5248 98bc 0040 65bd 3d51 8bbd 25e3 80bd
00000060: 8fdb 6c3c 1c10 09be fd78 593e 2428 77be
00000070: be0c 03bd a75d 513e cf6a d3bd c3ac 923e
00000080: 96e1 e33e efd1 41be c3b6 e0bd 2f55 eb3d
00000090: b773 973e 2f7e 493e 8d07 4f3d b056 463e
000000a0: 3f93 8b3e 4251 943e 1a99 b7be 704d d9bd
000000b0: 0571 f1bd 3a90 9e3e a11b 7e3e 38a7 16be
000000c0: a005 a73e 3c81 973e dcf7 423e 8beb efbd
000000d0: 78a1 3d3e bc31 593e 9a44 10be dfb2 0ebe
000000e0: dd27 92bd aa5c 4f3e 7e3d 7d3e 0d37 9bbc
000000f0: c013 8c3e 7efe 693e bd60 963e 2a4a 493d
00000100: 1e15 05be 0c58 fdbd e7cd 2c3e 7f59 293e
00000110: c662 e03d f87f 573e 5366 893e 68cf b43e
00000120: 779e 6e3d 1b25 a73d 70da 753e e88f b5bc
00000130: feed 4bbd 27f0 a43e 3cef eabd 4c6d b93d
00000140: 9843 603d 6cb2 363d ea2f 57bd 1588 c6bd
00000150: 5c86 d93e 27fd 583e 035c 64be 6823 b93e
00000160: b8fa 653e e58c 83be 4b5f b73e 0b85 0a3e
00000170: be25 f9bd 14ca a93e 6cfc 973e a459 43bd
00000180: a0b9 f73d 66e2 0a3e aa78 7b3c 0f4c 15be
00000190: d8af 71be 9e5c a93e 29b1 a13d 7716 b8bb
000001a0: 34d2 103e e3f7 053f 63e4 403e 3a4d c2be
000001b0: 9ce5 69be fa29 d7bd 8aeb 21be d5c9 eabd
000001c0: 886e 9cbd 2355 363e 4901 093e 0501 a03e
000001d0: 318f 953e 33b7 4cbe 82cf 18be 1f91 313e
000001e0: f7da afbd 7457 67be 3b2d 58bd a6d3 863e
000001f0: 0b19 123e ac59 af3e d18f 18bc 74cb 6e3b
00000200: fc5c 07bd 04c2 25be da2d 23be 09d7 35be
00000210: 7fa3 003e 805c 7c3e efda 333e a7dd 83bc
00000220: 252a 303e c1ba a63c e341 433e 9400 863e
00000230: d4d3 b1bd c2a5 1dbe 32ab 3abe 9dfe 61be
00000240: 4530 a2bd 6fbf ecbd 01d8 c9bd 1630 e13d
00000250: a592 27be 7305 edbd d6ba a13e 83af 403e
00000260: f0d7 003e 894a 883e d60d 4cbe db4d 03be
00000270: e9ca 35be 75f4 9dbe d7f3 473e e5df e8bd
00000280: 16a9 ab3d 4491 7b3e 0a5d 783d c50a 503e
00000290: c3ff 4a3e 998e 363c bd09 1b3e e7eb 4fbd
000002a0: f7ab 4bbe 458d 31be f023 46be 7255 bdbd
000002b0: b40c ac3e f746 b33e 7518 25be 3b74 4b3e
000002c0: d584 973e 2005 85be 609e 40bc 8849 45bc
000002d0: f49a 72bd 2a4f 03bd b18c 063e 0fc9 43be
000002e0: 2a90 aabd cfcd 93bd 88c9 403e d19d 053e
000002f0: 0dbb 1fbe 93fc dfbd 8b3c 67be 7ad4 933e
00000300: 4e0d 323e 4168 073d c1cd d43e b1ba 483e
00000310: f0c4 14bd f0d7 7e3b 7cf3 c23d 7110 5b3e
00000320: 5487 103d a8af 8e3e 4799 7f3e e1f0 853e
00000330: fd20 71bd ba81 35be efbf 83bd 6b76 0d3e
00000340: 7646 5a3d 4a70 5b3d ec6c 4fbe fe75 57be
00000350: 2563 a9bd 9256 16be 0f9e 913e 357c 5d3e
00000360: 9724 cabe f5e2 c5bd 3638 33bd 5f83 f1bd
00000370: 184c 423e a3dc 693e 2c35 723e f8fc af3e
00000380: b4a7 943e 1f12 9b3d a74e 6f3e b028 6c3e
00000390: edfc 173d 375a b33e dc7a 3e3e 6dd0 7ebe
000003a0: 655d 10be 90a8 2ebe 3ddf 0dbe 1483 68be
000003b0: 7fd0 60be 7459 9f3e e3a3 7b3d f888 1e3e
000003c0: 7aea be3e 3ab5 3b3e e40d 1a3e 3a8e 593e
000003d0: 019d 6cbd 7199 34be 1017 693e fbb3 de3b
000003e0: f26b 86be aa08 b53e 4675 a1bc 9f5e 94be
000003f0: 7491 b1bd 1233 98bd 00d7 2b3c 884a 8cbd

sequential/conv2d_1/Conv2D f4 [64, 3, 3, 32]
0.05480923 -0.03949774 0.010578963 -0.009159358 0.007521808 0.014366626 -0.107598744 -0.057129398
0.11425904 -0.10135858 -0.027098319 -0.06622582 0.056916904 -0.002842147 -0.12569354 0.005072751
-0.16286239 0.013850377 -0.044889003 0.10371324 0.009673884 0.08338897 -0.004978558 0.04998287
-0.022230033 0.066265054 -0.057001114 -0.041244697 -0.04294666 0.063585095 -0.041932035 -0.14170748
-0.16214931 -0.0046769944 0.043156695 0.028858235 0.010575196 0.05365761 0.086851254 -0.054148182
0.049853712 -0.0014287576 0.015663227 -0.039268095 -0.05026659 -0.13541843 -0.11446443 0.0020131515
-0.1274825 -0.19412595 0.03389109 -0.019040177 -0.0881438 0.084835805 0.081215896 -0.045026172
-0.030039124 0.08353118 -0.035708502 -0.05102161 0.061453544 -0.024689905 -0.19430274 -0.16690682
-0.18594217 0.053949583 -0.102733165 -0.12484426 0.06354586 0.08865089 0.08863429 0.005325614
-0.0156731 -0.020999191 0.08105509 -0.07566935 -0.08865988 -0.16636758 -0.102015235 0.009681389
0.03225498 -0.26916587 -0.10106434 -0.082425214 -0.011453704 -0.08151856 0.026713245 -0.019462567
0.0130153615 0.066013835 0.030875308 0.03936011 -0.017171122 -0.0030553457 -0.014294587 -0.024831887
0.0017095759 -0.07747447 0.067738935 0.0028443064 -0.039778024 -0.07247726 0.001260952 -0.111238
0.11463847 -0.17122447 -0.015741149 -0.02524536 -0.081879795 0.06863112 -0.0828355 0.0035320802
-0.21942802 0.113064535 -0.06976724 0.10067823 -0.040313162 0.047201462 -0.08846236 0.1251186
-0.06705125 0.094155684 -0.09780179 0.035560668 -0.048668783 0.019533752 -0.017107923 -0.22645926
0.03580592 0.038467027 0.04938846 0.04731507 0.0192188 0.050489996 -0.062951714 0.08381213
0.100387245 -0.047301043 0.018278897 0.001608521 -0.0035359778 0.04580257 -0.07717333 -0.12668198
-0.09768395 0.030619858 0.0042577377 0.043735832 -0.1058151 -0.056088302 -0.0412978 -0.006042693
-0.03508234 0.10502678 0.032648753 -0.13508655 -0.06366229 0.04624285 -0.01942499 -0.20426461
-0.011148878 0.06954835 0.035629127 -0.017039042 -0.019997792 0.112148136 0.05966261 0.11094652
-0.009290899 0.066389635 0.08935197 -0.07611339 0.04299216 -0.083573274 -0.0036926963 -0.0709237
-0.022447592 0.047151953 -0.15855753 0.013230609 -0.19077682 -0.0018633254 0.09739334 0.017113497
0.04848307 0.02040251 0.030357441 0.07723527 0.06476387 0.10735399 -0.06023764 -0.046981066
0.11067999 -0.04542273 0.098308116 0.08921322 0.033291515 -0.041856684 -0.1152928 -0.14745891
-0.021142367 -0.097340465 -0.077595256 -0.12825073 -0.047396682 0.00551631 -0.13549331 -0.045347076
-0.23314588 0.081911884 -0.0012597481 0.0029018729 -0.13402486 0.020387514 -0.01564793 -0.03818827
-0.08773909 -0.0016931775 -0.13140109 0.056392286 0.06521619 0.059677705 -0.16099569 -0.18818578
0.062234927 0.09300808 0.04116243 0.13257721 -0.003027195 0.023614999 0.052015815 0.03584261
0.073961906 -0.04200498 -0.029687295 -0.09084279 0.059352465 0.053530805 -0.16684026 -0.012762316
-0.16689052 0.01651893 0.083343506 0.0828614 -0.07447363 -0.037117984 -0.011943639 -0.023157414
0.079878986 0.07446832 -0.08704087 -0.1431459 0.020398177 0.086551175 -0.09781442 -0.10735428
00000000: a57f 603d 62c8 21bd 6353 2d3c 2211 16bc
00000010: 8079 f63b ff61 6b3c bb5c dcbd 8400 6abd
00000020: a500 ea3d 1695 cfbd 4bfd ddbc 67a1 87bd
00000030: b321 693d 5043 3abb cfb5 00be 5239 a63b
00000040: 66c5 26be b1ec 623c 88dd 37bd 9b67 d43d
00000050: 367f 1e3c d6c7 aa3d 2c23 a3bb d7ba 4c3d
00000060: c21b b6bc f9b5 873d 007a 69bd 33f0 28bd
00000070: d6e8 2fbd e738 823d edc0 2bbd c41b 11be
00000080: 780a 26be 7941 99bb 13c5 303d 1b68 ec3c
00000090: 9643 2d3c 15c8 5b3d 12df b13d 7cca 5dbd
000000a0: 6833 4c3d 2645 bbba 2b50 803c 95d7 20bd
000000b0: 57e4 4dbd 21ab 0abe 546c eabd 14ef 033b
000000c0: c68a 02be f4c8 46be 62d1 0a3d 25fa 9bbc
000000d0: bd84 b4bd 65be ad3d 8554 a63d 5d6d 38bd
000000e0: 9c14 f6bc 6512 ab3d 1443 12bd 09fc 50bd
000000f0: b6b6 7b3d 7c42 cabc 4cf7 46be 9fe9 2abe
00000100: a067 3ebe 3dfa 5c3d c465 d2bd 59ae ffbd
00000110: 5524 823d 998e b53d e585 b53d 7d82 ae3b
00000120: df64 80bc 7f06 acbc 3600 a63d 88f8 9abd
00000130: 5093 b5bd 435c 2abe 5ded d0bd b09e 1e3c
00000140: cc1d 043d 1cd0 89be d2fa cebd 8dce a8bd
00000150: 51a8 3bbc 34f3 a6bd bcd5 da3c f66f 9fbc
00000160: 623e 553c 4332 873d 37ee fc3c 1138 213d
00000170: 74aa 8cbc 323c 48bb d833 6abc 3e6c cbbc
00000180: d913 e03a efaa 9ebd b6ba 8a3d 8b67 3a3b
00000190: 48ee 22bd f56e 94bd 8746 a53a c0d0 e3bd
000001a0: 93c7 ea3d 7855 2fbe 95f3 80bc 5bcf cebc
000001b0: 98b0 a7bd 798e 8c3d a9a5 a9bd 797a 673b
000001c0: bdb1 60be 618e e73d 20e2 8ebd 6330 ce3d
000001d0: 6a1f 25bd 5256 413d c12b b5bd 171f 003e
000001e0: 2a52 89bd b2d4 c03d 4e4c c8bd 10a8 113d
000001f0: eb58 47bd 3f05 a03c ea25 8cbc f0e4 67be
00000200: 3aa9 123d 9a8f 1d3d 8e4b 4a3d 72cd 413d
00000210: bf70 9d3c 99ce 4e3d d4ec 80bd b2a5 ab3d
00000220: d497 cd3d bdbe 41bd a0bd 953c 02d5 d23a
00000230: ddbb 67bb 7a9b 3b3d 0d0d 9ebd ecb8 01be
00000240: 860e c8bd 7fd6 fa3c 7e84 8b3b 5824 333d
00000250: 96b5 d8bd d9bc 65bd e227 29bd c801 c6bb
00000260: 80b2 0fbd 4818 d73d b3ba 053d 2154 0abe
00000270: 6061 82bd 2569 3d3d 2821 9fbc be2a 51be
00000280: c9a9 36bc 5e6f 8e3d d9ef 113d 7695 8bbc
00000290: 69d2 a3bc ecad e53d c860 743d ee37 e33d
000002a0: db38 18bc 4af7 873d 2afe b63d 56e1 9bbd
000002b0: 8c18 303d 7728 abbd 2a01 72bb 7240 91bd
000002c0: 03e4 b7bc 6822 413d e85c 22be 32c5 583c
000002d0: 005b 43be d33a f4ba 2976 c73d 9b31 8c3c
000002e0: 2f96 463d 2a23 a73c 2bb0 f83c 862d 9e3d
000002f0: eba2 843d 69dc db3d bebb 76bd 386f 40bd
00000300: 31ac e23d 2f0d 3abd c455 c93d 6cb5 b63d
00000310: af5c 083d ea71 2bbd a21e ecbd 78ff 16be
00000320: c232 adbc 705a c7bd 43ea 9ebd 2954 03be
00000330: 0623 42bd 2ac2 b43b c2be 0abe dbbd 39bd
00000340: cbbd 6ebe 6bc1 a73d 221e a5ba 592d 3e3b
00000350: d03d 09be b703 a73c 1630 80bc 4e6b 1cbd
00000360: 8db0 b3bd 9ced ddba 028e 06be 99fb 663d
00000370: 1190 853d 9c70 743d 0edc 24be c6b3 40be
00000380: 0dea 7e3d 057b be3d f099 283d 52c2 073e
00000390: e863 46bb 3e74 c13c 890e 553d b3cf 123d
000003a0: 5779 973d 6a0d 2cbd c532 f3bc c90b babd
000003b0: 921b 733d 1e43 5b3d 2cd8 2abe 0819 51bc
000003c0: 59e5 2abe b552 873c 00b0 aa3d 3db3 a93d
000003d0: a185 98bd 0709 18bd 41af 43bc 9eb4 bdbc
000003e0: 9897 a33d d982 983d 7c42 b2bd d794 12be
000003f0: 141a a73c be41 b13d ed52 c8bd 90dc dbbd
