assets/model-ap.tflite (tflite, 359092 bytes, 8 tensors)

sequential/dense_1/BiasAdd/ReadVariableOp/resource f4 [36]
-0.04585408 -0.010029247 -0.0043880087 0.012861978 0.010220404 -0.03364411 0.021288555 -0.04000626
0.010276495 -0.009551743 0.0046472745 0.0327621 0.009264326 0.03884399 -0.013968731 0.020581903
-0.016944733 0.04579061 -0.05013243 0.0006964461 0.006713874 0.009449006 0.031542033 0.032061517
-0.03478883 0.08812173 -0.043337334 0.0602643 0.022681642 -0.01437532 -0.046417147 -0.0069134063
-0.039180744 0.03176225 -0.05707622 -0.003380433
00000000: 7dd1 3bbd b651 24bc 49c9 8fbb 0cbb 523c
00000010: 7b73 273c 68ce 09bd 5665 ae3c 9bdd 23bd
00000020: be5e 283c ea7e 1cbc 2a48 983b 8d31 063d
00000030: 66c9 173c e01a 1f3d 1bdd 64bc 619b a83c
00000040: aecf 8abc ef8e 3b3d aa57 4dbd b591 363a
00000050: 0f00 dc3b 01d0 1a3c 3832 013d f052 033d
00000060: bb7e 0ebd 2a79 b43d 7d82 31bd b3d7 763d
00000070: dace b93c 7686 6bbc e81f 3ebd db89 e2bb
00000080: fd7b 20bd 2219 023d c1c8 69bd 418a 5dbb

sequential/dense/BiasAdd/ReadVariableOp/resource f4 [128]
0.012412999 -0.016644929 -0.007862972 -0.0034230764 -0.013541219 0.011448079 0.0121229375 0.009788469
0.006881989 0.013845108 -0.011939991 0.0073405663 -0.015645074 -0.008842091 0.015476833 -0.012110154
0.0047056465 0.009498025 0.029580906 0.007917678 0.012428241 0.0107077295 -0.01542505 0.0019005074
-0.010953395 0.014052781 -0.0038427692 0.01116209 -0.0035211914 0.00068942975 0.025481453 0.028167373
0.0122874975 -0.0006963604 0.007090564 0.02756521 -0.010645811 0.036512103 0.020792902 0.011219342
0.009399643 0.023709489 0.0056916024 0.0109406235 0.009122377 -0.0025234926 -4.075958e-05 -0.008722488
-0.017141776 -0.013021222 0.0059720073 -0.021669852 0.003328936 0.015874887 0.00033167185 0.035992645
0.006978952 0.010037965 0.014871835 0.0027300555 0.008957427 0.018295819 -0.011392352 0.019234233
0.019912645 0.015815897 0.011003286 0.012252895 0.009238718 0.003150589 -0.025466535 -0.002178767
-0.017556667 -0.0003772249 -0.0025523508 0.0039078747 6.777547e-05 0.0033022973 0.00045057983 0.0031045224
-0.0028415949 0.022902872 -0.012104487 0.017662995 0.030021941 0.0061914977 0.014539449 0.019481612
0.0035767388 -0.017415749 0.009926672 0.006875535 -0.001109093 0.007273173 0.014671387 0.022833508
0.009547455 0.014458031 0.0029715674 0.011849008 0.008927544 -0.00062757556 0.01128704 0.015195251
-0.004020833 0.014050454 0.021959318 0.022646597 -0.009924858 -0.019864708 -0.016714297 0.011431892
0.018606158 -0.0201238 0.024659276 -0.008971967 -0.010491726 0.011317308 0.041109037 0.007674809
0.016152121 -0.00073256093 0.0052091335 -0.0088100135 0.023479294 -0.00903554 0.0067649647 0.007960167
00000000: e45f 4b3c f25a 88bc b2d3 00bc b155 60bb
00000010: fddb 5dbc b990 3b3c 499f 463c d15f 203c
00000020: 4f82 e13b 98d6 623c f49f 43bc 2289 f03b
00000030: 192a 80bc 6bde 10bc 8b92 7d3c ab69 46bc
00000040: d331 9a3b 9b9d 1b3c a853 f23c 26b9 013c
00000050: d29f 4b3c 796f 2f3c 59b9 7cbc 721a f93a
00000060: de75 33bc a33d 663c f8d6 7bbb 33e1 363c
00000070: cac3 66bb d9ba 343a 7bbe d03c 43bf e63c
00000080: 8051 493c f58b 36ba f657 e83b 6fd0 e13c
00000090: c56b 2ebc b78d 153d e055 aa3c 55d1 373c
000000a0: f600 1a3c 673a c23c 9f80 ba3b 4d40 333c
000000b0: 0676 153c 2e61 25bb 44f5 2ab8 c4e8 0ebc
000000c0: e96c 8cbc f756 55bc d4b0 c33b f984 b1bc
000000d0: 472a 5a3b 0d0c 823c 3ee4 ad39 066d 133d
000000e0: b1af e43b 4776 243c ffa8 733c bbea 323b
000000f0: 2cc2 123c 1de1 953c fda6 3abc 1c91 9d3c
00000100: d81f a33c 5790 813c 2047 343c 5ec0 483c
00000110: fe5d 173c 1d7a 4e3b 329f d0bc a5c9 0ebb
00000120: 00d3 8fbc 45c6 c5b9 5745 27bb a10d 803b
00000130: ae22 8e38 5b6b 583b cd3b ec39 3e75 4b3b
00000140: 0d3a 3abb ce9e bb3c e651 46bc fcb1 903c
00000150: 93f0 f53c 0ce2 ca3b de36 6e3c e797 9f3c
00000160: b867 6a3b 79ab 8ebc 7ba3 223c 2b4c e13b
00000170: fc5e 91ba cc53 ee3b 4260 703c 560d bb3c
00000180: ee6c 1c3c 61e1 6c3c a1be 423b 5722 423c
00000190: d544 123c e283 24ba 47ed 383c 81f5 783c
000001a0: 31c1 83bb e033 663c 07e4 b33c 5b85 b93c
000001b0: df9b 22bc 50bb a2bc 6cec 88bc d54c 3b3c
000001c0: f16b 983c abda a4bc 4002 ca3c 28ff 12bc
000001d0: 7de5 2bbc 3b6c 393c f361 283d f77c fb3b
000001e0: 7451 843c 5509 40ba 61b1 aa3b e057 10bc
000001f0: a657 c03c cd09 14bc a3ac dd3b 5c6b 023c

sequential/conv2d_1/BiasAdd/ReadVariableOp/resource f4 [64]
-0.01207646 -0.005537903 0.0 -0.008465339 -0.0059993877 0.008487984 -0.010796788 0.013499229
-0.005965982 0.0 -0.0010155583 0.024040252 0.00088826654 0.0001478793 0.016729373 0.02348574
-0.007044889 0.01014504 -0.006529913 0.0115923975 0.0013914066 -0.013975806 -0.004776974 0.03402322
0.03928318 -0.0068760347 0.009483494 -0.0064826105 0.03066813 -0.0016538285 -0.0063940664 0.0
0.009527764 -0.0067083207 0.011526054 0.00125349 0.0105482815 -0.0066052233 -0.0078149345 0.023487983
0.024657134 -0.01211503 -0.01427681 0.016341863 0.0 0.026288059 -0.009585817 -0.009692513
0.0 -0.006145863 0.0032079036 -0.0063787694 0.0065396093 -0.0065050474 0.006645563 0.017816562
-0.0055683614 0.01811342 -0.008785342 0.024844753 -0.01421196 0.009115707 -0.008482901 0.014509897
00000000: 58dc 45bc 4c77 b5bb 0000 0000 35b2 0abc
00000010: 8396 c4bb 2f11 0b3c 03e5 30bc df2b 5d3c
00000020: 497e c3bb 0000 0000 7b1c 85ba 10f0 c43c
00000030: 8fda 683a 0c10 1b39 0a0c 893c 2b65 c03c
00000040: d0d8 e6bb 6237 263c e1f8 d5bb 0aee 3d3c
00000050: dc5f b63a c7fa 64bc 2a88 9cbb ef5b 0b3d
00000060: 66e7 203d 5c50 e1bb a860 1b3c 146c d4bb
00000070: bb3b fb3c 47c5 d8ba 5185 d1bb 0000 0000
00000080: 571a 1c3c 79d1 dbbb c6d7 3c3c 254c a43a
00000090: b3d2 2c3c a170 d8bb 360a 00bc df69 c03c
000000a0: c2fd c93c 1e7e 46bc 48e9 69bc 5fdf 853c
000000b0: 0000 0000 0e5a d73c d50d 1dbc 59cd 1ebc
000000c0: 0000 0000 3c63 c9bb b13b 523b ff04 d1bb
000000d0: 384a d63b 4b28 d5bb 06c3 d93b 0af4 913c
000000e0: cd76 b6bb 9862 943c 65f0 0fbc 3987 cb3c
000000f0: 48d9 68bc 0c5a 153c defb 0abc ebba 6d3c

sequential/conv2d/BiasAdd/ReadVariableOp/resource f4 [32]
0.00419089 -0.028074976 0.13885799 -0.019562416 0.08603593 -0.056405645 -0.010412834 0.068225116
0.0237706 -0.013768959 0.07232643 0.13964297 -0.00025112936 -0.02645523 0.09198473 0.025568457
-0.032216404 -0.015824787 0.053063136 -0.010997918 0.03399209 0.0 0.0 0.07410843
0.020233108 0.041262582 0.099813335 -0.015842075 -0.028285217 0.04126731 0.046173863 0.02976542
00000000: bc53 893b 7efd e5bc ca30 0e3e 5c41 a0bc
00000010: 9b33 b03d 9b09 67bd 979a 2abc 9cb9 8b3d
00000020: 90ba c23c 3397 61bc e11f 943d 91fe 0e3e
00000030: 03aa 83b9 a3b8 d8bc 7d62 bc3d f174 d13c
00000040: 59f5 03bd fca2 81bc bb58 593d 9d30 34bc
00000050: 4a3b 0b3d 0000 0000 0000 0000 29c6 973d
00000060: e7bf a53c f402 293d ef6a cc3d 3dc7 81bc
00000070: 66b6 e7bc e907 293d ce20 3d3d 9cd6 f33c

sequential/dense/MatMul f4 [128, 512]
-0.015744055 0.04294783 -0.008225545 0.06640662 -0.09415885 0.035293695 0.15930378 -0.040209223
-0.020755574 -0.07989398 0.014152577 0.05782635 0.008638317 -0.06868584 0.03611546 0.037648357
0.041909434 -0.046966024 0.079807736 -0.03257117 -0.042000264 0.04584985 -0.009104701 -0.058421653
0.0058992966 0.14980166 -0.03415548 0.037860096 -0.0031874743 -0.027064411 -0.07711328 -0.095970266
-0.047442414 0.044973202 -0.0051876823 -0.004060513 -0.048184082 -0.08831664 -0.03967786 0.000529596
0.045369368 -0.0010003041 0.10792635 0.07447357 0.046410456 -0.01664691 -0.07162362 -0.026101425
-0.00046178699 -0.020075988 -0.013043538 0.020614803 -0.007796902 -0.0033073127 -0.007834149 -0.09062186
-0.040036604 0.0688814 0.091150016 -0.0856092 0.058121867 -0.100247435 -0.04960715 -0.06623996
-0.033585194 0.011696294 0.008440353 -0.08602428 -0.07120436 -0.05901529 -0.060947314 -0.009925891
0.023639299 0.0720738 0.029670916 0.03778051 0.060000777 0.070441164 -0.03676591 -0.064657226
0.068880044 -0.028255932 -0.043743163 0.010695887 -0.14180614 -0.09010392 -0.028570645 -0.028124029
0.041642006 -0.122161984 0.024353424 0.03282395 0.18495463 0.03939671 0.008931339 -0.0776949
-0.16746914 0.04098493 -0.0063076075 0.014163247 -0.002109153 -0.0476149 -0.04894306 0.03750196
-0.04057711 0.070089474 -0.02423275 0.0020084584 -0.050356608 -0.07155209 0.058404475 -0.06095098
0.056017667 -0.06508025 -0.031113805 0.04614103 0.17184238 0.020123854 0.074032106 -0.054240145
0.082649 -0.010104462 -0.019543724 -0.06477737 -0.026009237 -0.091586865 0.0671517 -0.0557683
-0.08268302 0.01382111 0.053826436 0.010911301 0.089920595 -0.04617177 0.12057615 0.04194185
0.007570587 0.050304532 0.06800062 0.058105614 -0.01882274 0.068367966 -0.05583215 -0.022838194
0.0995242 0.0031894846 -0.026167177 -0.030502483 -0.02944949 0.07486749 -0.051911276 0.12483017
0.054197647 0.09181947 0.011086407 0.046581328 -0.022453634 -0.006932795 -0.022983626 -0.022254884
0.12297962 -0.082928926 -0.02381055 -0.045326702 0.06915664 -0.065352485 -0.08515147 0.06794417
-0.012286485 -0.013358521 -0.11013498 0.12084449 -0.03448317 0.03781239 -0.07123788 0.110913925
-0.091927126 -0.060536228 -0.06451325 0.0034521376 -0.004017948 0.0109304115 0.06362343 0.070149586
0.06621788 -0.117899165 -0.07885571 -0.030012833 0.1012 0.041454438 -0.03833835 0.079152256
0.15441169 -0.023252077 0.018852212 -0.038819645 0.0830144 -0.040391568 -0.030326802 -0.08269746
0.045172483 -0.0902261 0.16170833 0.027676497 0.005372578 -0.031155566 0.018914258 0.08830178
0.05473984 0.03852783 -0.021372214 -0.09376048 0.009357325 -0.029056981 0.02116711 -0.05008431
0.016659807 0.05886952 0.033686224 -0.04281195 0.1184811 0.07914906 0.007674704 -0.013926357
0.06838788 -0.095004685 0.11690616 0.118076324 0.17181058 -0.020181775 -0.018424438 -0.07819991
-0.054027744 0.104823746 0.064679526 -0.07485697 -0.082877435 -0.03922836 -0.090619706 -0.10606637
-0.0027134046 -0.051201228 0.06284316 0.02912457 0.030819923 0.009490594 0.11276453 -0.18494661
0.043610908 0.088313855 -0.019330299 0.0039630765 -0.009947674 -0.099467136 -0.044198077 0.05498894
00000000: adf9 80bc 10ea 2f3d 70c4 06bc 3200 883d
00000010: 5bd6 c0bd 1f90 103d 8820 233e 6db2 24bd
00000020: 9807 aabc 749f a3bd 36e0 673c 53db 6c3d
00000030: ba87 0d3c 29ab 8cbd ceed 133d 2a35 1a3d
00000040: 3aa9 2b3d 725f 40bd 3d72 a33d 5969 05bd
00000050: 7808 2cbd 0dcd 3b3d e22b 15bc 8b4b 6fbd
00000060: e34e c13b 9b65 193e 9ee6 0bbd 3013 1b3d
00000070: f2e4 50bb 2fb6 ddbc 91ed 9dbd 0f8c c4bd
00000080: fa52 42bd d235 383d 6ffd a9bb 0d0e 85bb
00000090: ac5c 45bd 5bdf b4bd 4085 22bd 96d4 0a3a
000000a0: 3bd5 393d a31c 83ba 7d08 dd3d 9985 983d
000000b0: e418 3e3d 1a5f 88bc 68af 92bd a8d2 d5bc
000000c0: 001c f2b9 6676 a4bc 90b4 55bc 60e0 a83c
000000d0: 287d ffbb 80bf 58bb cd5a 00bc f497 b9bd
000000e0: 6cfd 23bd b111 8d3d dcac ba3d e053 afbd
000000f0: 3211 6e3d 874e cdbd de30 4bbd d1a8 87bd
00000100: a190 09bd d0a1 3f3c 6849 0a3c 7f2d b0bd
00000110: 97d3 91bd 04ba 71bd e4a3 79bd 34a0 22bc
00000120: 34a7 c13c 6e9b 933d 6c10 f33c bcbf 1a3d
00000130: 60c3 753d 7543 903d da97 16bd 026b 84bd
00000140: fb10 8d3d fc78 e7bc 082c 33bd cd3d 2f3c
00000150: a135 11be 6788 b8bd fc0c eabc 5d64 e6bc
00000160: cf90 2a3d 1030 fabd d580 c73c 6872 063d
00000170: bf64 3d3e 725e 213d c054 123c 811e 9fbd
00000180: 087d 2bbe d0df 273d 0cb0 cebb f70c 683c
00000190: b739 0abb d707 43bd 8578 48bd a89b 193d
000001a0: 2f34 26bd 128b 8f3d c383 c6bc 57a0 033b
000001b0: bb42 4ebd e789 92bd 8839 6f3d bca7 79bd
000001c0: c872 653d cb48 85bd 61e2 febc 60fe 3c3d
000001d0: 73f7 2f3e c8da a43c 259e 973d ea2a 5ebd
000001e0: e143 a93d 2f8d 25bc 291a a0bc ffa9 84bd
000001f0: 5311 d5bc e591 bbbd d586 893d 4d6d 64bd
00000200: b755 a9bd f071 623c 1c79 5c3d 50c5 323c
00000210: 4a28 b83d 9c1e 3dbd a1f0 f63d 38cb 2b3d
00000220: b012 f83b 200c 4e3d e943 8b3d 2700 6e3d
00000230: 2632 9abc 8104 8c3d 41b0 64bd 2a17 bbbc
00000240: 58d3 cb3d ac06 513b 8c5c d6bc 58e0 f9bc
00000250: 0f40 f1bc 2054 993d eba0 54bd f6a6 ff3d
00000260: 5afe 5d3d d90b bc3d c3a3 353c 10cc 3e3d
00000270: aff0 b7bc 802c e3bb 2848 bcbc e04f b6bc
00000280: bddc fb3d a4d6 a9bd 580e c3bc 7ea8 39bd
00000290: ffa1 8d3d 86d7 85bd e563 aebd 5026 8b3d
000002a0: 414d 49bc b3dd 5abc 738e e1bd 517d f73d
000002b0: 393e 0dbd 2ae1 1a3d 2ae5 91bd d726 e33d
000002c0: 4a44 bcbd d6f4 77bd 861f 84bd 423d 623b
000002d0: fea8 83bb 7815 333c 004d 823d 96aa 8f3d
000002e0: 3d9d 873d 1e75 f1bd 1a7f a1bd 79dd f5bc
000002f0: f241 cf3d 21cc 293d ac08 1dbd 941a a23d
00000300: 191e 1e3e 247b bebc f46f 9a3c 5901 1fbd
00000310: 7403 aa3d a171 25bd ea6f f8bc 495d a9bd
00000320: c806 393d 76c8 b8bd de96 253e d2b9 e23c
00000330: 730c b03b f539 ffbc 13f2 9a3c 90d7 b43d
00000340: e236 603d 5ccf 1d3d c814 afbc 7f05 c0bd
00000350: 774f 193c e808 eebc a666 ad3c 3525 4dbd
00000360: 267a 883c 2a21 713d 91fa 093d 955b 2fbd
00000370: 38a6 f23d e718 a23d 157c fb3b 602b 64bc
00000380: f20e 8c3d d191 c2bd 7f6c ef3d 00d2 f13d
00000390: 1def 2f3e 4054 a5bc d9ee 96bc 4627 a0bd
000003a0: 324c 5dbd d5ad d63d b376 843d 9c4e 99bd
000003b0: a5bb a9bd ebad 20bd d396 b9bd 5339 d9bd
000003c0: 60d3 31bb 61b8 51bd eab3 803d a696 ee3c
000003d0: 107a fc3c 707e 1b3c 17f1 e63d a562 3dbe
000003e0: 5aa1 323d e5dd b43d 935a 9ebc b2dc 813b
000003f0: 92fb 22bc 6db5 cbbd 0b09 35bd 153c 613d

sequential/dense_1/MatMul f4 [36, 128]
-0.15341002 -0.045158748 0.0964949 0.009683297 -0.14567974 -0.17256176 -0.028323257 -0.1465338
-0.08277509 -0.18297872 0.06706192 -0.21567366 0.075960286 0.08820471 0.06569443 -0.17629975
-0.20774178 0.07401174 0.040753502 0.018550292 0.073680006 -0.20431565 0.14609872 0.06363678
0.034034368 -0.23293619 0.024000008 -0.062323518 -0.08033474 0.058829542 -0.015390484 -0.092162445
-0.09801265 -0.060235426 -0.17896405 0.0070225345 0.051973984 -0.21464579 -0.04252819 -0.13765556
-0.10838219 0.057332188 -0.21726935 0.052543424 -0.03529998 0.021914382 -0.24505623 -0.1283728
-0.16684136 0.008971937 -0.23469391 -0.01015357 0.087782614 -0.15906143 -0.23702961 0.08943638
0.0014564189 0.021196391 -0.056941085 0.004217463 -0.067288995 -0.03318157 -0.0636254 -0.13947147
0.08482137 0.0496333 -0.10717975 -0.093716696 -0.06116868 -0.060391337 0.097709596 -0.24576926
0.0059072087 -0.16565512 -0.027586685 -0.021942114 -0.0729706 -0.090174764 -0.09032877 -0.043334186
0.101520896 -0.112712964 0.1678292 -0.22444849 0.0636173 -0.093557194 -0.0846298 -0.16786952
-0.22331995 0.062726334 -0.17778903 -0.011468537 -0.23656397 -0.040745046 0.037885327 0.10221934
-0.09839824 -0.06416977 0.11127723 -0.024879016 -0.16134785 -0.057016037 -0.18171081 -0.004030591
-0.16988233 -0.046073772 -0.010759653 -0.19167352 -0.23892574 -0.18776332 -0.017741488 0.004797339
0.01019502 0.010923371 0.100749664 -0.13032314 0.109842315 0.10467882 -0.083894335 -0.012776396
-0.091282845 0.09134219 0.024845641 -0.13571504 -0.066637725 0.096692346 -0.0015884881 0.0074822847
-0.13993092 -0.30005547 0.042717148 0.2155652 -0.087880865 -0.27689224 -0.13272528 -0.32808685
0.11521122 0.07678504 -0.12157848 -0.27550876 -0.16309425 0.091724426 0.21797499 -0.138164
0.051238302 0.09870556 -0.012086334 -0.119260505 0.18586704 0.08909082 0.03284053 -0.21919738
0.16254216 -0.04940047 -0.2252103 0.08750225 0.076031886 0.19188763 0.05494821 -0.2713176
0.034809653 -0.25022763 0.119576566 -0.19060788 -0.08562601 0.10720729 0.18512475 0.19763765
-0.21018714 0.08558036 -0.062614515 -0.09405904 0.17120072 0.016246082 -0.15929088 -0.10538444
0.042499263 -0.216129 0.11124334 -0.07951319 -0.03829896 0.10069115 -0.09052626 0.16714343
0.02168745 -0.0018816276 -0.11969197 -0.15587129 0.05938524 0.1047859 -0.085209824 -0.055394236
-0.1706289 -0.0022573897 -0.15436828 -0.24443777 0.24434133 -0.18540835 0.1653691 -0.067813836
-0.14335802 0.084693074 -0.18632329 -0.18868586 0.23765892 -0.24350972 0.09284645 0.04439211
0.033516187 0.16821487 -0.0793167 -0.0069762897 -0.19767389 0.11600898 0.16569687 0.08998424
0.15896818 0.105728574 -0.085415184 0.051967394 -0.03518769 -0.09333649 0.21742408 0.130494
0.05620166 0.12842724 -0.12527896 -0.118659504 0.012295355 -0.16209188 0.20022997 0.08628218
-0.20930916 -0.18215999 0.18842387 0.22180697 0.060066447 -0.22278504 -0.20587148 -0.12333644
0.08110999 -0.3053503 0.09933298 -0.10658421 0.10874119 -0.010899482 0.025024004 -0.27209407
-0.087889485 -0.022617534 -0.11921111 -0.096647725 -0.071236454 -0.07089591 -0.1477818 0.17523953
00000000: 8417 1dbe 61f8 38bd 1e9f c53d b1a6 1e3c
00000010: 122d 15be 08b4 30be 2d06 e8bc f50c 16be
00000020: fd85 a9bd c65e 3bbe c357 893d 8ed9 5cbe
00000030: 1191 9b3d aca4 b43d cd8a 863d ec87 34be
00000040: 43ba 54be 7893 973d 25ed 263d c8f6 973c
00000050: 8be5 963d 1f38 51be e79a 153e 0054 823d
00000060: 9f67 0b3d d386 6ebe aa9b c43c f246 7fbd
00000070: 8a86 a4bd 3ff7 703d 5e28 7cbc aabf bcbd
00000080: dbba c8bd 6cb9 76bd 5a42 37be 4a1d e63b
00000090: ace2 543d 1bcc 5bbe 0a32 2ebd 94f5 0cbe
000000a0: 7bf7 ddbd 28d5 6a3d db7b 5ebe c637 573d
000000b0: b696 10bd ca85 b33c 05f0 7abe 2974 03be
000000c0: 76d8 2abe 08ff 123c 9a53 70be 295b 26bc
000000d0: 5fc7 b33d 00e1 22be e4b7 72be 6c2a b73d
000000e0: 4fe5 be3a 0ea4 ad3c 0e3b 69bd a532 8a3b
000000f0: d0ce 89bd 66e9 07bd 094e 82bd 9cd1 0ebe
00000100: d4b6 ad3d 4a4c 4b3d 0f81 dbbd 8aee bfbd
00000110: 038c 7abd e85c 77bd f81b c83d f0aa 7bbe
00000120: 4291 c13b 7fa1 29be 79fd e1bc f3bf b3bc
00000130: 9c71 95bd 8cad b8bd 4afe b8bd 307f 31bd
00000140: 30ea cf3d 0ed6 e6bd 6bdb 2b3e d3d5 65be
00000150: c949 823d ea9a bfbd 6352 adbd fde5 2bbe
00000160: fcad 64be aa76 803d 540e 36be 88e6 3bbc
00000170: d33d 72be 47e4 26bd a52d 1b3d 6058 d13d
00000180: 0485 c9bd 716b 83bd 51e5 e33d 14cf cbbc
00000190: 5f38 25be a689 69bd 6612 3abe 0c13 84bb
000001a0: a2f5 2dbe dab7 3cbd 4149 30bc 1046 44be
000001b0: f3a8 74be 0745 40be 9956 91bc ff32 9d3b
000001c0: 0309 273c f0f7 323c d755 ce3d 6e73 05be
000001d0: 02f5 e03d d961 d63d cbd0 abbd 1754 51bc
000001e0: 80f2 babd 9d11 bb3d 1689 cb3c e2f8 0abe
000001f0: 5c79 88bd a306 c63d d134 d0ba f42d f53b
00000200: 0d4a 0fbe dfa0 99be 2df8 2e3d 20bd 5c3e
00000210: e2fa b3bd d2c4 8dbe 23e9 07be 00fb a7be
00000220: dcf3 eb3d 7a41 9d3d 23fe f8bd 7c0f 8dbe
00000230: 2e02 27be 04da bb3d d634 5f3e dd7a 0dbe
00000240: 41df 513d 2426 ca3d c205 46bc da3e f4bd
00000250: ee53 3e3e 3f75 b63d cb83 063d 4775 60be
00000260: 7471 263e 2658 4abd 879d 66be 6134 b33d
00000270: 9bb6 9b3d 317e 443e 6011 613d 24ea 8abe
00000280: 9194 0e3d d61d 80be 8fe4 f43d b62e 43be
00000290: b15c afbd 7f8f db3d 5891 3d3e 8661 4a3e
000002a0: 4c3b 57be c144 af3d 0a3c 80bd 07a2 c0bd
000002b0: 3e4f 2f3e 8116 853c 261d 23be ccd3 d7bd
000002c0: b513 2e3d ec50 5dbe 8cd3 e33d d0d7 a2bd
000002d0: 5fdf 1cbd 2937 ce3d d565 b9bd a627 2b3e
000002e0: e1a9 b13c f2a0 f6ba 1021 f5bd b99c 1fbe
000002f0: f03d 733d fd99 d63d 7d82 aebd 11e5 62bd
00000300: 58b9 2ebe b7f0 13bb b812 1ebe e54d 7abe
00000310: 9d34 7a3e b0db 3dbe 8456 293e fbe1 8abd
00000320: 72cc 12be 9073 ad3d 88cb 3ebe de36 41be
00000330: dc5c 733e 9d5a 79be 4826 be3d 80d4 353d
00000340: 4548 093d 8540 2c3e cb70 a2bd 5c99 e4bb
00000350: 066b 4abe 1e96 ed3d 71ac 293e a849 b83d
00000360: 8ec8 223e 3988 d83d 28ee aebd c3db 543d
00000370: f820 10bd 3427 bfbd 6ba4 5e3e 38a0 053e
00000380: b633 663d 6e82 033e 2149 00be c103 f3bd
00000390: 7572 493c 6afb 25be 1609 4d3e b6b4 b03d
000003a0: 2455 56be 2688 3abe 30f2 403e 5e21 633e
000003b0: 3c08 763d c321 64be f9cf 52be d197 fcbd
000003c0: ff1c a63d e056 9cbe 176f cb3d d348 dabd
000003d0: b3b3 de3d be93 32bc 24ff cc3c ea4f 8bbe
000003e0: 67ff b3bd 6848 b9bc f424 f4bd 3eef c5bd
000003f0: 6be4 91bd e031 91bd 1d54 17be fe71 333e

sequential/conv2d/Conv2D f4 [32, 3, 3, 1]
0.1296319 0.16986617 0.09792892 0.15132584 0.18285835 0.13447113 -0.23663953 -0.09923203
-0.10728404 -0.140751 -0.017529843 0.17331904 -0.16593456 -0.0824984 0.28687245 0.03259618
0.10230154 0.16395038 0.25625548 0.23753476 -0.23399957 0.13043073 0.12801982 -0.28484654
-0.07593096 0.10628426 -0.09733055 -0.1695057 0.19692071 0.21333545 -0.07915519 0.14751475
0.00911211 -0.10587332 0.044421706 0.22046041 0.20483877 -0.16116363 -0.25385347 0.1990131
0.022435687 -0.19937177 0.06782367 0.2222982 0.22787008 -0.1727246 0.17606278 0.21278307
-0.18683416 0.051751643 -0.0057681655 0.10517401 0.07056373 0.24804524 0.027999017 0.058103763
0.05548083 -0.10704726 -0.08402621 -0.107942626 -0.013472583 -0.06494567 -0.10655738 -0.12538013
-0.15972579 -0.2595054 0.0003079414 0.035952248 0.30694804 0.17018557 0.30355945 0.14972192
-0.17855036 0.128071 0.2035865 0.024649013 0.14604855 0.21717659 0.023440203 0.027121725
-0.22282387 0.03636772 -0.011445214 0.21295638 0.055833668 -0.16500206 -0.020099992 -0.23272753
0.07387024 0.2524228 0.038127497 0.26160678 0.32561526 0.14777243 0.2181533 -0.09916838
-0.11430754 -0.27631077 -0.17943369 0.063752666 0.006030702 -0.096032515 0.20286646 0.11605071
-0.3338201 0.1422591 0.2728329 -0.2735254 0.18051752 -0.20111911 -0.08885735 0.07427085
0.12427635 0.30846676 -0.15459749 0.05246235 0.16992983 -0.2073305 -0.20428874 0.095224224
0.09285851 -0.113139115 0.13941307 0.1655154 0.25289544 0.27860576 -0.0002984538 0.2618703
0.26764062 -0.060580406 0.17233807 0.010968776 0.1670922 -0.28000855 -0.30390477 0.10300808
0.106803305 -0.13254474 0.1237549 0.005903491 0.17407374 0.14129344 -0.06429348 -0.18921146
0.12532869 -0.24704076 -0.104324214 0.040258594 0.13629739 0.12518406 -0.17466223 0.2703533
0.2819744 0.14595316 -0.0082254885 -0.15441379 -0.033818286 -0.082269415 0.18295993 0.0968377
0.15248753 0.2534826 -0.14176264 -0.11647974 -0.25449407 -0.1008498 0.23227355 0.20847753
0.07996613 0.3405457 0.16325642 -0.13963278 -0.052857447 0.14219284 -0.18238956 0.075119115
0.2778284 -0.14926055 0.09615499 0.3020141 0.1592704 0.1936205 0.09413803 0.22776234
-0.2314942 -0.2683258 -0.20811866 0.17398545 0.100508325 -0.068759926 0.11055817 -0.01516895
-0.07607441 0.0022375435 -0.0780641 -0.06674631 -0.10802034 -0.056347124 -0.11354063 0.08647904
-0.13177198 -0.0963368 -0.06689005 -0.11343984 -0.13525422 -0.10303135 0.031451344 0.16532591
-0.14213914 -0.27487823 -0.010280099 -0.06224163 0.024674961 0.22952291 0.066044636 0.32488212
0.13497488 0.16493635 0.13358822 0.13161227 0.124650836 -0.12232315 0.11134129 -0.18155223
-0.063832834 -0.14774604 -0.1640014 -0.29100007 0.2048337 0.20947038 -0.028402273 0.14884023
0.27271777 0.07032068 0.08569594 -0.028778823 0.25077546 0.061200857 -0.16478601 -0.1694516
0.2204679 0.09959796 -0.28226787 0.12958162 0.085235044 0.25167507 0.05192548 0.15763462
0.19843405 0.030186757 0.07477743 -0.20967388 0.25132102 0.13791993 -0.25286275 0.09503019
00000000: 3abe 043e 66f1 2d3e f58e c83d 29f5 1a3e
00000010: 383f 3b3e cdb2 093e a251 72be 2a3a cbbd
00000020: bcb7 dbbd 0821 10be bf9a 8fbc 8c7a 313e
00000030: c0ea 29be ecf4 a8bd f2e0 923e 9283 053d
00000040: 7883 d13d 9ce2 273e eb33 833e 503c 733e
00000050: 959d 6fbe a28f 053e a117 033e 68d7 91be
00000060: b181 9bbd 90ab d93d 3d55 c7bd e792 2dbe
00000070: 95a5 493e 9c74 5a3e 1e1c a2bd 1b0e 173e
00000080: f64a 153c 1cd4 d8bd 89f3 353d 60c0 613e
00000090: 41c1 513e 1408 25be 15f9 81be 17ca 4b3e
000000a0: 0ccb b73c 1d28 4cbe 23e7 8a3d 24a2 633e
000000b0: c656 693e b8de 30be cd49 343e cee3 593e
000000c0: 7451 3fbe 88f9 533d e102 bdbb 7965 d73d
000000d0: b883 903d 92ff 7d3e 325e e53c 36fe 6d3d
000000e0: de3f 633d 983b dbbd ef15 acbd 0611 ddbd
000000f0: 1cbc 5cbc 3c02 85bd c13a dabd a663 00be
00000100: 288f 23be e4dd 84be 3273 a139 aa42 133d
00000110: 4b28 9d3e 2045 2e3e 256c 9b3e b450 193e
00000120: e8d5 36be 0b25 033e fb78 503e baec c93c
00000130: c08d 153e 8a63 5e3e ab05 c03c 612e de3c
00000140: f12b 64be 52f6 143d b584 3bbc 3d11 5a3e
00000150: d8b1 643d 4df6 28be bda8 a4bc 2050 6ebe
00000160: 4849 973d 903d 813e 942b 1c3d 53f1 853e
00000170: 0bb7 a63e a851 173e 9463 5f3e cb18 cbbd
00000180: 121a eabd 9b78 8dbe 77bd 37be c290 823d
00000190: 329d c53b b2ac c4bd 3abc 4f3e ffab ed3d
000001a0: 78ea aabe 5fac 113e c1b0 8b3e 850b 8cbe
000001b0: 96d9 383e 2bf2 4dbe d8fa b5bd 511b 983d
000001c0: 9984 fe3d 5bef 9d3e ce4e 1ebe c3e2 563d
000001d0: 1602 2e3e 724e 54be 1131 51be eb04 c33d
000001e0: 9a2c be3d 7bb5 e7bd 4dc2 0e3e de7c 293e
000001f0: 837b 813e 6aa5 8e3e ca79 9cb9 dd13 863e
00000200: 3108 893e 2923 78bd 6479 303e 62b6 333c
00000210: 381a 2b3e 485d 8fbe 6899 9bbe e6f5 d23d
00000220: b1bb da3d cfb9 07be 3673 fd3d 1272 c13b
00000230: 6340 323e 3aaf 103e 4dac 83bd a6c0 41be
00000240: 2a56 003e 41f8 7cbe efa7 d5bd 32e6 243d
00000250: 8b91 0b3e 4030 003e a8da 32be bf6b 8a3e
00000260: f35e 903e bf74 153e 33c4 06bc a61e 1ebe
00000270: 0b85 0abd de7c a8bd d959 3b3e d852 c63d
00000280: b125 1c3e 79c8 813e 3a2a 11be ee8c eebd
00000290: 0c4d 82be 578a cebd 1ed9 6d3e 227b 553e
000002a0: 48c5 a33d 025c ae3e b12c 273e e5fb 0ebe
000002b0: 0d81 58bd 009b 113e 54c4 3abe 0dd8 993d
000002c0: 863f 8e3e c2d7 18be e8ec c43d 98a1 9a3e
000002d0: c817 233e 7444 463e 71cb c03d 883a 693e
000002e0: d10c 6dbe 0062 89be 0f1d 55be 3e29 323e
000002f0: 4fd7 cd3d 01d2 8cbd 526c e23d 3087 78bc
00000300: e6cc 9bbd c0a3 123b 12e0 9fbd 4ab2 88bd
00000310: c539 ddbd 3ecc 66bd fd87 e8bd ec1b b13d
00000320: 3cef 06be 3a4c c5bd a7fd 88bd 2653 e8bd
00000330: 1580 0abe 1a02 d3bd 20d3 003d 324b 293e
00000340: ec8c 11be d7bc 8cbe dc6d 28bc 14f1 7ebd
00000350: 2523 ca3c 0e08 6b3e 6942 873d f356 a63e
00000360: db36 0a3e 13e5 283e 5acb 083e 5ec5 063e
00000370: f048 ff3d 8f84 fabd e706 e43d d4e8 39be
00000380: caba 82bd bd4a 17be fcef 27be f6fd 94be
00000390: edbf 513e 677f 563e e2ab e8bc 9369 183e
000003a0: aaa1 8b3e 4a04 903d 5a81 af3d 91c1 ebbc
000003b0: a465 803e c0ad 7a3d aabd 28be b884 2dbe
000003c0: 56c2 613e 04fa cb3d 6a85 90be 0bb1 043e
000003d0: b68f ae3d 8edb 803e d0af 543d f86a 213e
000003e0: 4c32 4b3e 384a f73c e924 993d c0b4 56be
000003f0: 26ad 803e e23a 0d3e 3a77 81be 309f c23d

sequential/conv2d_1/Conv2D f4 [64, 3, 3, 32]
0.06470108 0.080679074 0.008063765 0.09872406 0.036000364 0.046982605 0.082779445 0.045321416
0.016422253 0.098272935 0.051674385 -0.013964088 0.059073094 0.09739622 -0.07859394 0.03514274
-0.050973676 -0.022757959 -0.02805776 0.13106503 -0.025261322 -0.020978551 0.02644106 0.017140325
-0.013841502 -0.04392599 -0.112176105 0.05846781 0.026152784 0.061940014 -0.1294227 0.07807927
-0.040257193 -0.00869616 -0.0021185672 -0.060753807 0.060105983 -0.016795427 0.035077114 -0.102502376
-0.059555925 0.053918388 -0.053786743 0.0035819835 -0.055484988 -0.024279248 -0.106764905 -0.03377442
-0.022400456 0.062149942 -0.12375039 -0.0983689 0.05820403 0.014673412 -0.009348787 0.1405027
0.010247075 0.045790173 -0.041339405 0.06345041 -0.048290882 0.122981764 -0.05491166 0.09804183
-0.031598173 0.044392895 -0.01795574 -0.115781605 -0.07538449 0.053363405 0.060916983 -0.07323618
-0.02496245 -0.049697556 0.016938027 0.13670124 -0.1534628 0.026329814 -0.016145842 0.043868266
-0.014752445 0.032083247 -0.24206217 -0.15473722 0.100158036 0.05697895 0.018331327 -0.018705934
-0.027151762 0.0061388058 0.18060608 0.006026996 -0.16572554 -0.059475392 0.0855951 0.092225514
-0.014881336 0.12573306 -0.091298245 0.12509793 -0.007206133 0.105079226 -0.04345067 -0.002849366
-0.027901815 0.031850126 -0.08388323 -0.014670862 -0.021671811 0.04305278 -0.052957363 -0.014938038
0.079163015 0.03839059 -0.0062693874 -0.0039309394 -0.010350639 0.030665793 0.08004535 -0.053187624
0.02439658 -0.051978346 -0.15683588 0.074166544 0.0072121304 0.026863843 -0.17418888 0.06579479
-0.041946623 -0.038306974 -0.033688497 0.029366493 0.09954722 -0.060998034 -0.07575683 0.04755216
-0.05916395 -0.05608512 -0.13863847 -0.10052528 0.03410774 0.10976622 -0.18997404 0.027073514
0.046195827 0.09391727 0.070866816 -0.07121757 0.04096128 0.03420619 -0.043381833 0.18872689
0.038931366 0.117636874 -0.10833161 0.08055581 0.08903328 0.017122854 -0.10088016 0.042548247
-0.09707478 -0.13046192 0.046119608 -0.032537837 0.03831134 -0.060767453 0.0532856 -0.026153468
-0.0009120962 -0.1732329 -0.03035089 0.0593034 0.049922165 0.07873556 -0.16413915 0.029229289
-0.042657357 0.013033518 -0.024559332 -0.18376005 -0.0694092 0.080313586 0.034966014 0.075943135
-0.004783523 0.07654781 0.104740374 -0.0059054317 0.04900838 0.111720055 -0.13058299 0.116544135
-0.042874567 0.013200753 -0.104014724 -0.035236295 -0.018970137 -0.050276656 0.0057116523 -0.060247857
0.04364821 0.012055054 0.05167917 -0.14335234 -0.052915327 -0.014524497 0.047989696 0.07748235
0.02404165 -0.034422968 -0.07890763 -0.013248539 -0.075996436 0.028126597 0.014294364 -0.009751668
-0.027987305 -0.093469195 -0.06595819 -0.050494634 -0.00040017403 -0.04362658 -0.031000001 0.06313938
0.11281396 -0.05938579 -0.0810216 0.016784733 -0.09352964 -0.072676465 0.07591254 -0.11811282
0.032882173 -0.04777192 0.115532406 -0.015350917 0.10069607 -0.043088336 -0.092463225 0.015076006
-0.0337074 0.054796748 -0.0827467 -0.05891437 -0.07482929 -0.038549524 -0.051456373 -0.092830524
-0.030084457 -0.042018194 0.026795177 -0.053522475 0.11161121 -0.051575057 -0.0130115235 -0.05055549
00000000: 0082 843d 123b a53d e21d 043c d72f ca3d
00000010: 1e75 133d d570 403d 4588 a93d f3a2 393d
00000020: f687 863c 5243 c93d 85a8 533d a1c9 64bc
00000030: a1f6 713d ab77 c73d dcf5 a0bd d5f1 0f3d
00000040: c6c9 50bd e66e babc 63d9 e5bc e935 063e
00000050: d5f0 cebc 36db abbc ec9a d83c de69 8c3c
00000060: 78c7 62bc bdeb 33bd 96bc e5bd f17b 6f3d
00000070: 5d3e d63c d0b4 7d3d 6287 04be 06e8 9f3d
00000080: bae4 24bd 577a 0ebc a9d7 0abb fcd8 78bd
00000090: b131 763d 9096 89bc 05ad 0f3d c4ec d1bd
000000a0: eaf0 73bd 87d9 5c3d 7d4f 5cbd b6bf 6a3b
000000b0: 3a44 63bd 46e5 c6bc 8fa7 dabd 0c57 0abd
000000c0: 2981 b7bc f090 7e3d d870 fdbd a275 c9bd
000000d0: 5967 6e3d c068 703c a82b 19bc f1df 0f3e
000000e0: 59e3 273c 7a8e 3b3d 8253 29bd 4af2 813d
000000f0: a9cc 45bd dddd fb3d 0ceb 60bd 28ca c83d
00000100: 166d 01bd 53d5 353d eb17 93bc e81e edbd
00000110: 2f63 9abd 9693 5a3d 1684 793d dafc 95bd
00000120: 0d7e ccbc aa8f 4bbd 9ec1 8a3c 69fb 0b3e
00000130: 5a25 1dbe 9fb1 d73c 4944 84bc 36af 333d
00000140: 3db4 71bc b969 033d 25df 77be 6f73 1ebe
00000150: a81f cd3d c262 693d 942b 963c 303d 99bc
00000160: 5f6d debc 0928 c93b cdf0 383e 1b7e c53b
00000170: f5b3 29be 789c 73bd 7c4c af3d bbe0 bc3d
00000180: d9d0 73bc 2bc0 003e 93fa babd ac19 003e
00000190: 6d21 ecbb c733 d73d 54f9 31bd 6ebc 3abb
000001a0: 5992 e4bc 4775 023d f9ca abbd 0e5e 70bc
000001b0: 1589 b1bc 1d58 303d d2e9 58bd acbe 74bc
000001c0: 3820 a23d 743f 1d3d 6f6f cdbb 1ccf 80bb
000001d0: ba95 29bc d436 fb3c d1ee a33d 44db 59bd
000001e0: 56db c73c 3fe7 54bd 9699 20be a1e4 973d
000001f0: bc53 ec3b 9011 dc3c 925e 32be 6bbf 863d
00000200: 39d0 2bbd c6e7 1cbd f3fc 09bd 0092 f03c
00000210: 6adf cb3d 13d9 79bd 6626 9bbd 0ec6 423d
00000220: e655 72bd 83b9 65bd 3ef7 0dbe 33e0 cdbd
00000230: 8fb4 0b3d 1dcd e03d 8e88 42be 46c9 dd3c
00000240: d637 3d3d b357 c03d 9f22 913d 84da 91bd
00000250: 04c7 273d ca1b 0c3d 26b1 31bd 9f41 413e
00000260: 7f76 1f3d 9aeb f03d f7dc ddbd 72fa a43d
00000270: 1557 b63d 3a45 8c3c 429a cebd 1247 2e3d
00000280: 24cf c6bd cf97 05be eae7 3c3d 6546 05bd
00000290: 5aec 1c3d 4be7 78bd 0042 5a3d cc3f d6bc
000002a0: bd19 6fba f763 31be 6ea2 f8bc 1fe8 723d
000002b0: 2f7b 4c3d 1c40 a13d 1814 28be 4372 ef3c
000002c0: 7bb9 2ebd 898a 553c a730 c9bc 982b 3cbe
000002d0: 6926 8ebd 737b a43d 8638 0f3d 1388 9b3d
000002e0: 19bf 9cbb 19c5 9c3d 1f82 d63d 5a82 c1bb
000002f0: 03bd 483d 7ccd e43d 8cb7 05be b1ae ee3d
00000300: 3e9d 2fbd f947 583c ac05 d5bd ef53 10bd
00000310: 4367 9bbc e5ee 4dbd d028 bb3b 75c6 76bd
00000320: 77c8 323d 9082 453c 8aad 533d f5ca 12be
00000330: bebd 58bd 28f8 6dbc d890 443d 11af 9e3d
00000340: fff2 c43c 19ff 0cbd 539a a1bd 6610 59bc
00000350: 05a4 9bbd c069 e63c e832 6a3c 76c5 1fbc
00000360: a245 e5bc c76c bfbd 1615 87bd 76d3 4ebd
00000370: 73ce d1b9 c9b1 32bd b7f3 fdbc 384f 813d
00000380: 010b e73d 843e 73bd a7ee a5bd 2380 893c
00000390: 788c bfbd 66d7 94bd 0978 9b3d 22e5 f1bd
000003a0: 75af 063d 7dac 43bd 419c ec3d 6a82 7bbc
000003b0: be39 ce3d 657d 30bd 5c5d bdbd 5a01 773c
000003c0: c510 0abd 8e72 603d 1a77 a9bd 3250 71bd
000003d0: 1940 99bd 1be6 1dbd ebc3 52bd ee1d bebd
000003e0: ae73 f6bc 451b 2cbd 8f81 db3c 623a 5bbd
000003f0: 6b94 e43d 5e40 53bd 492e 55bc 4613 4fbd
